training/model/LinuxDistro4UPredictor.tflite (tflite, 810668 bytes, 12 tensors)

sequential/dense/BiasAdd/ReadVariableOp f4 [512]
0	0x3ca60352	0.020265255
1	0xbb7e1679	-0.003877072
2	0xbcc68b12	-0.024236236
3	0x3bc8366a	0.0061100023
4	0xbc77b04b	-0.015117715
5	0xbcdd1944	-0.026989587
6	0xbcd09186	-0.025460016
7	0x3c2b7413	0.010464686
8	0x3c4e9db2	0.01261084
9	0xbccd1a68	-0.025037006
10	0xbba3a8fc	-0.0049945097
11	0xba1f40fa	-0.0006075051
12	0x39d364f8	0.00040320284
13	0xbc5f6cb0	-0.013636753
14	0xbc2d7229	-0.0105863
15	0xbb94e847	-0.004544291
16	0xbd1b2164	-0.03787364
17	0x3cdce166	0.026962947
18	0x3c41e65e	0.011834709
19	0xbc9945a3	-0.018709963
20	0xbd102b75	-0.035197694
21	0x3b8380db	0.0040131635
22	0xbc1e6fbb	-0.009670193
23	0xbc870f35	-0.016486743
24	0xbbefc60e	-0.007317311
25	0xbc4cec79	-0.012507551
26	0xbc623d6f	-0.013808592
27	0xbd00eff4	-0.031478837
28	0xbc5a36f3	-0.013318765
29	0x3c47a546	0.0121854
30	0x3b9c48c6	0.0047694175
31	0xbc59bc31	-0.013289497
32	0xbcdb853d	-0.026796931
33	0xbc3a554b	-0.0113728745
34	0x3c40645e	0.011742679
35	0xbcbb780e	-0.022884395
36	0xbc0ee2aa	-0.008721033
37	0xbbaee54f	-0.0053373943
38	0xbc2bc647	-0.010484285
39	0xbd16ac84	-0.036785617
40	0x3c91a6f4	0.017779805
41	0xbcc1b798	-0.023647115
42	0xb8208fdc	-3.8280952e-05
43	0xbd3450f6	-0.044022523
44	0xbd0befbe	-0.034164183
45	0xbc28d283	-0.010304096
46	0x3c443af4	0.011976946
47	0xbbe7a65f	-0.0070693935
48	0xbd0583a1	-0.032596234
49	0xbce56b5d	-0.028005296
50	0xbc090487	-0.008362896
51	0x3c541e13	0.012946623
52	0x3b666344	0.0035154382
53	0xbd20de27	-0.03927436
54	0xbc0434e5	-0.008069252
55	0xbd189d35	-0.0372593
56	0xbd446f5f	-0.047957774
57	0xba8c815f	-0.0010719708
58	0xbaa7f117	-0.0012812939
59	0xbd186cbe	-0.03721308
60	0x3b28889f	0.0025716198
61	0x3cc37d78	0.02386354
62	0x3c7f3c77	0.015578381
63	0xbd0b7e09	-0.034055743
64	0x3bc5715b	0.006025476
65	0xbd28ec18	-0.04124078
66	0xbbd45b7b	-0.006480632
67	0xbd04f2a3	-0.03245796
68	0xbd62e54b	-0.055394452
69	0xbcf408ae	-0.029789295
70	0xbc8c057f	-0.017092464
71	0xbcf77c25	-0.030210564
72	0xbac669bf	-0.0015137716
73	0xbc85ad97	-0.016318126
74	0xbcf9c504	-0.030489452
75	0xbc82a2c3	-0.015946751
76	0x3c2d5b4d	0.01058085
77	0xbcb524da	-0.022112299
78	0xbc7bcf75	-0.015369286
79	0xbca18cc7	-0.019720448
80	0x3a9b9e0b	0.0011872662
81	0xbc66a297	-0.01407685
82	0xbc6716ed	-0.014104587
83	0xbc99489d	-0.018711383
84	0xbd0770a8	-0.03306642
85	0xbc75af87	-0.014995462
86	0xbc7fcadf	-0.015612333
87	0xbd012422	-0.0315286
88	0x3b875997	0.004130553
89	0xbcb38066	-0.021911811
90	0x3abf9db0	0.0014619138
91	0x3c884ad6	0.016637247
92	0x3b1a4b79	0.002354352
93	0xbd30f7ed	-0.04320519
94	0x3c392f5f	0.011302798
95	0x3c930d48	0.017950669
96	0xbcccf9e7	-0.025021506
97	0x3c3ceabe	0.011530576
98	0xbc251b4a	-0.010077307
99	0xbc8b555d	-0.017008478
100	0x3cf77103	0.030205255
101	0xb94a06c0	-0.00019266736
102	0xbd1bc15f	-0.03802621
103	0xbca92fe5	-0.02065272
104	0xbce7aae5	-0.028279731
105	0xbcacc331	-0.021089168
106	0xbcf8640c	-0.030321144
107	0x3c2c8911	0.010530726
108	0xbca7d025	-0.020484993
109	0x3a7a7271	0.0009553796
110	0xbc0bc129	-0.00852994
111	0xbc988998	-0.018620297
112	0xbc854038	-0.016265973
113	0xbc99bbae	-0.01876625
114	0xbc42c40e	-0.011887563
115	0xbce381c7	-0.027771844
116	0x3cbc74c2	0.023004893
117	0x3aa9ad21	0.0012945273
118	0xbc3d4354	-0.011551697
119	0xbc8b780a	-0.017025013
120	0x3c6b4c09	0.01436139
121	0xbc4f7205	-0.012661462
122	0xbc1176b7	-0.0088784015
123	0xbcccff60	-0.025024116
124	0xbc434c0a	-0.011919985
125	0xbd3af366	-0.04564228
126	0xbcc73ed8	-0.024321958
127	0xbcad64e3	-0.02116627
128	0xbc8c15ca	-0.017100234
129	0xbbb22ce4	-0.0054374803
130	0xbcb57bec	-0.022153817
131	0xbc60cccb	-0.013720701
132	0x3c894609	0.016757028
133	0xbcfa0ce5	-0.030523727
134	0x3bc4ea03	0.0060093417
135	0xba5cbe4b	-0.000842069
136	0xbcd615c1	-0.02613342
137	0x3b704a37	0.003666533
138	0xbcdd015e	-0.026978191
139	0x3c59ad5b	0.01328596
140	0xbc76b31e	-0.015057353
141	0xbca8b367	-0.020593358
142	0xba35cefd	-0.00069354457
143	0xbc8fca41	-0.017552497
144	0xbce21144	-0.027596124
145	0xbbf69200	-0.007524729
146	0xbc5e9182	-0.013584496
147	0x3c20db74	0.009817947
148	0xbc56a70f	-0.013101353
149	0xbcce8166	-0.025208186
150	0x3c479280	0.012180924
151	0xbcdd6c19	-0.027029084
152	0xbc351d58	-0.011054359
153	0xbc09046f	-0.008362873
154	0xbb09f252	-0.0021048975
155	0xbc1cc446	-0.00956828
156	0xbc8b0391	-0.016969474
157	0x3bd48fc6	0.0064868657
158	0xbd0ccd47	-0.034375455
159	0xbd2f9444	-0.042866006
160	0xbc2de517	-0.010613701
161	0xbc6e45ce	-0.01454301
162	0xbc402380	-0.011727214
163	0xbc008abd	-0.007845578
164	0xbb3e8bc2	-0.0029075001
165	0xbccd9b05	-0.025098333
166	0xbc48e75f	-0.012262194
167	0xbcf83caf	-0.030302374
168	0xbce25ca2	-0.027632061
169	0xbbaf9772	-0.00535863
170	0x3c12ae26	0.008952653
171	0xbc2eef81	-0.010677219
172	0xbd04fc61	-0.03246725
173	0xbc4b471b	-0.01240709
174	0xbc3f8be9	-0.011691072
175	0xbba97802	-0.0051717767
176	0xbccbfecb	-0.024901768
177	0xbcd73ca0	-0.026274025
178	0xbbcde6f8	-0.006283637
179	0x3bee3d62	0.007270501
180	0xbc406156	-0.011741957
181	0xbd0c42aa	-0.034243263
182	0x3c6999ff	0.014257907
183	0xbc7fdd24	-0.015616689
184	0xbc842a04	-0.016133316
185	0xbc447203	-0.011990073
186	0x3bf5af58	0.0074977092
187	0xbca566df	-0.020190654
188	0xbd1104d8	-0.03540501
189	0x3ca430d8	0.020042822
190	0xbcdfba93	-0.027310645
191	0xbc1dffa1	-0.009643466
192	0xbba3ae53	-0.0049951463
193	0xbca07f86	-0.019592058
194	0xbb93b7a3	-0.004507975
195	0xbd0973e3	-0.033557784
196	0x3bcf165e	0.006319805
197	0xbcbfaf8a	-0.023399133
198	0xbc5bc78c	-0.013414275
199	0xbca8da16	-0.020611804
200	0xbca84918	-0.020542666
201	0xbbe0783c	-0.0068502706
202	0x3a428284	0.0007419961
203	0xbcd318c1	-0.02576864
204	0xbb111a9b	-0.0022141102
205	0x3ba37284	0.0049880166
206	0xbc5124d9	-0.012765133
207	0xbcbeda21	-0.023297371
208	0xbd214c18	-0.03937921
209	0xbd3569f0	-0.044290483
210	0x3b33415e	0.0027352194
211	0xbaaecc06	-0.001333595
212	0xbc82fdb2	-0.015990112
213	0x3bcf77fe	0.006331443
214	0xbc1c5c40	-0.0095434785
215	0xbc7eada1	-0.015544326
216	0x3b499d24	0.003076383
217	0xbd2b3ea9	-0.041807804
218	0xbc9d3784	-0.019191511
219	0xbba7f972	-0.0051261717
220	0xbd079089	-0.033096824
221	0xbc5768ac	-0.013147514
222	0x3aa0ccf4	0.0012268112
223	0x3c31765d	0.010831443
224	0xb9611454	-0.00021465245
225	0xbbdea84f	-0.0067949663
226	0xbc888a07	-0.016667379
227	0xbc2c1977	-0.010504118
228	0xbc9abce0	-0.01888889
229	0xbd161335	-0.03663941
230	0xbc86183a	-0.016368974
231	0xbcaf609e	-0.021408375
232	0xbb63e106	-0.0034771576
233	0x3c34896a	0.01101909
234	0xbcc17b6e	-0.023618426
235	0xbc2dfd85	-0.010619526
236	0xbcef7b87	-0.029233707
237	0x3ccea21f	0.02522379
238	0xbccffc68	-0.025388911
239	0x3b0242b9	0.0019876196
240	0xbd21186d	-0.039329935
241	0xbcfa649a	-0.030565549
242	0xbcc694b8	-0.024240837
243	0x3a1c8e97	0.0005972175
244	0xbbca9f9f	-0.006183579
245	0xbb03e701	-0.0020126703
246	0xbc86fa16	-0.016476672
247	0xbb1fcc9b	-0.002438343
248	0xbcece4df	-0.028917728
249	0xbca8eecf	-0.020621685
250	0xbbc3aa7a	-0.00597125
251	0xbbedd8db	-0.007258517
252	0xbb6e3924	-0.0036349976
253	0xbb82ab3a	-0.003987697
254	0xbb3262c7	-0.002721952
255	0x3c1cf8c6	0.009580797

sequential/dense_5/BiasAdd/ReadVariableOp f4 [44]
0	0xbb4dce8b	-0.0031403627
1	0x3cbc39dd	0.02297681
2	0xbb0efd1f	-0.0021818352
3	0x3d52c372	0.051455922
4	0xbc9bd826	-0.019023966
5	0x3d95edfe	0.07320784
6	0xbceb6adf	-0.028737484
7	0xbdab8ed7	-0.08376854
8	0xbc3b35da	-0.011426413
9	0x3bd311cb	0.00644133
10	0x3d0d5a6b	0.034510057
11	0x3cd21a84	0.02564741
12	0x3d178313	0.036990236
13	0xbd2fa1dc	-0.04287897
14	0x3c845927	0.016155792
15	0xbc0426da	-0.008065904
16	0x3d22a661	0.039709453
17	0xbd9e8658	-0.07740468
18	0x3d187b00	0.037226677
19	0x3ccbcdf3	0.024878478
20	0x3c8ab339	0.016931163
21	0xbd08a0f5	-0.033356626
22	0x3c0f4af4	0.008745898
23	0x3ca1f8ca	0.019771952
24	0x3ccc8c02	0.024969105
25	0x3d587825	0.052848954
26	0x3c84552a	0.01615389
27	0x3d411773	0.047141504
28	0xbd92e5ca	-0.07172735
29	0xbbe94439	-0.0071187285
30	0x3ca17db2	0.019713257
31	0x3d9e9869	0.07743914
32	0xbca36d2a	-0.019949514
33	0xbcdba3ed	-0.026811564
34	0xbc58c475	-0.013230433
35	0x3c3bb873	0.01145755
36	0xbb17af4b	-0.0023145254
37	0xbcb88246	-0.022523057
38	0xbd66c10a	-0.05633644
39	0x3d1159a3	0.035485875
40	0xbcaad636	-0.020854097
41	0xbc29816b	-0.010345797
42	0xbd890aad	-0.06691489
43	0xbd6698f8	-0.056298226

sequential/dense_4/BiasAdd/ReadVariableOp f4 [32]
0	0x3cac46da	0.021029878
1	0x3c9f6ffa	0.019462574
2	0x3c51b92c	0.012800496
3	0xbc3692cf	-0.0111434
4	0xbc956b5b	-0.018239668
5	0x3c50cf9d	0.012744811
6	0x3c695c54	0.014243204
7	0x3c0ce523	0.008599552
8	0x3c8dedd4	0.01732532
9	0xbcc0f285	-0.023553142
10	0xbd501770	-0.0508036
11	0xbc78bf0d	-0.015182269
12	0x3b0f5cf4	0.0021875473
13	0x3c8d8eb2	0.017279956
14	0x3d1779fb	0.036981564
15	0xbb9b4830	-0.00473883
16	0xbbb51496	-0.0055261357
17	0x3ce8978b	0.028392574
18	0x3ca31ff2	0.019912694
19	0x3c17e7bc	0.009271558
20	0x3be1baa0	0.0068887025
21	0xbb85d670	-0.004084401
22	0x3afdcb4c	0.0019362955
23	0xbc141a55	-0.009039481
24	0xbcec82d5	-0.02887098
25	0x3a8d271a	0.00107691
26	0x3b489386	0.003060551
27	0x3cd1995f	0.025585828
28	0xbc07ef09	-0.0082967365
29	0x3b52a528	0.0032141898
30	0xbcd8b85c	-0.026455097
31	0xbcaf8b76	-0.021428805

sequential/dense_3/BiasAdd/ReadVariableOp f4 [64]
0	0xbc79ddb8	-0.015250616
1	0x3c7e04f5	0.015504112
2	0xbc3a6779	-0.011377209
3	0xbc27eea4	-0.010249767
4	0x3cacba1d	0.02108484
5	0xbd1e0307	-0.038577106
6	0xbc1f878d	-0.009736908
7	0xbc46515f	-0.012104361
8	0xbbc78684	-0.0060890336
9	0xbd6e5eaf	-0.058195766
10	0xbc7d6377	-0.015465609
11	0xbd066eef	-0.03282064
12	0x3c3e55ff	0.011617183
13	0xbd1ae817	-0.037818994
14	0xbc988523	-0.018618172
15	0x3c042fd6	0.008068046
16	0x3c9768f8	0.01848267
17	0xbb7cb454	-0.0038559632
18	0xbd0f9b27	-0.035060074
19	0xbcc39e2a	-0.02387913
20	0xbab8deaf	-0.0014104451
21	0xbaad6b38	-0.0013230806
22	0x3b9ddd64	0.0048176516
23	0xbcbe9f5a	-0.023269344
24	0xb9991822	-0.00029200414
25	0xbb5e20f6	-0.0033894158
26	0x3a94a731	0.0011341331
27	0xbbd7bb93	-0.00658364
28	0xbbf62995	-0.007512281
29	0xbc38df0f	-0.01128365
30	0xbd2892da	-0.041155674
31	0x3936af8b	0.00017422267
32	0xbd0e3d99	-0.034726713
33	0xbcc3eff4	-0.02391813
34	0xbc98d14a	-0.018654484
35	0xbd1a4a2f	-0.037668403
36	0xbc3ab054	-0.011394579
37	0x3c960c7a	0.018316496
38	0xbc9eca1a	-0.019383479
39	0xbcc4f173	-0.024040913
40	0xbbf276c1	-0.0073994105
41	0xbc36f8fa	-0.011167759
42	0xbce84e9c	-0.028357796
43	0x3bf82d21	0.007573739
44	0x3bc5fa4e	0.0060418015
45	0xbc86b081	-0.016441585
46	0xbd4095da	-0.04701791
47	0xbc635799	-0.013875865
48	0x3bb18b46	0.005418214
49	0xbc1d6901	-0.009607554
50	0xbc507508	-0.012723215
51	0xbc3fe750	-0.011712864
52	0xbcb9ce34	-0.022681333
53	0x3b7c959e	0.0038541327
54	0x3c9d6380	0.019212484
55	0x3c37afe3	0.011211368
56	0x3be96763	0.0071229204
57	0xbd3cab91	-0.046062056
58	0x3c1d7399	0.00961008
59	0xbca01f78	-0.019546255
60	0xbc9a95c8	-0.01887025
61	0xbd2fcdec	-0.04292099
62	0x3b631ff4	0.0034656497
63	0xbc880793	-0.016605174

sequential/dense_2/BiasAdd/ReadVariableOp f4 [124]
0	0xbb93674e	-0.004498399
1	0x3ca25b08	0.019818798
2	0xbcc66b64	-0.02422113
3	0xbcbd80b5	-0.023132661
4	0xbcb606e4	-0.022220083
5	0xbcbcf15f	-0.023064313
6	0xbcb14796	-0.02164058
7	0xbbfded89	-0.0077492637
8	0xbd00eb15	-0.03147419
9	0xbc0304ad	-0.00799672
10	0x38a405a2	7.8211786e-05
11	0xbc21304a	-0.009838173
12	0x3bd26975	0.006421263
13	0xbcd0fc12	-0.025510821
14	0xbc2f4afe	-0.010699032
15	0xbc51ace0	-0.012797564
16	0xbbcc316d	-0.006231478
17	0xb9ffab03	-0.00048764804
18	0x3b9a6625	0.0047118836
19	0xbc59a067	-0.013282872
20	0xbcf521f0	-0.02992341
21	0xbb9300f1	-0.004486196
22	0xbd15c55f	-0.03656518
23	0x3b47d7de	0.0030493657
24	0xbc2103f9	-0.009827607
25	0x3c503432	0.012707757
26	0xbb829f58	-0.0039862804
27	0xbd289c15	-0.041164476
28	0x3d0670d6	0.032822452
29	0xbc838969	-0.016056733
30	0x3be3d94e	0.006953395
31	0xb6058660	-1.989676e-06
32	0xbd038e0e	-0.032117896
33	0x3c12112c	0.008915227
34	0xbc0c1de8	-0.008552052
35	0xbaadae52	-0.0013250804
36	0xbc44a5b4	-0.012002397
37	0xbbf1786c	-0.0073690917
38	0x3c0cf9f3	0.008604514
39	0x3be14b6b	0.0068754456
40	0xbcc0bd4e	-0.023527768
41	0x3c401d22	0.011725696
42	0xbaa49ba0	-0.0012558587
43	0xbc4db59e	-0.012555508
44	0xbc88905e	-0.016670402
45	0xbbeeaac4	-0.0072835404
46	0xbc1cfd4e	-0.009581877
47	0xbcad7c61	-0.021177473
48	0x3bc93fb0	0.0061416253
49	0x3ce22190	0.027603894
50	0x39582dfd	0.00020616497
51	0x3b31f03b	0.0027151245
52	0xbcb2fdb8	-0.021849498
53	0xbcf17309	-0.029473798
54	0xbce329cf	-0.027729897
55	0xbce65990	-0.028118879
56	0xbcf88c80	-0.030340433
57	0x3b0e342f	0.0021698584
58	0x3a5e2416	0.0008474005
59	0xbbdf89a6	-0.006821829
60	0xbbbb8eef	-0.005723826
61	0xbbe704c2	-0.0070501277
62	0xbcc8f1ef	-0.024529425
63	0xbcbc1d94	-0.022963323
64	0xbca02841	-0.019550445
65	0xbcdec8bc	-0.027195327
66	0xbcf56900	-0.029957294
67	0xbcadd103	-0.021217829
68	0xbc498058	-0.012298666
69	0xbcbfe9a6	-0.023426842
70	0x3975377c	0.0002338569
71	0xbaad7a86	-0.0013235367
72	0x3b73f928	0.0037227366
73	0xbd1145b3	-0.03546686
74	0xbcea7caa	-0.028623898
75	0xbbc03fd6	-0.005866985
76	0x3baa95ed	0.005205861
77	0xbc7e23d6	-0.015511474
78	0xbd02b5a3	-0.031911504
79	0xbd29805d	-0.041382182
80	0xbcab128f	-0.020882873
81	0xbc95bb10	-0.018277675
82	0x3acab693	0.0015465788
83	0xbc897ae0	-0.016782224
84	0xbc178806	-0.009248739
85	0x3be993e7	0.007128227
86	0xbc9280cd	-0.017883683
87	0xbc9d48cc	-0.019199751
88	0xbce04605	-0.027377138
89	0xbcd1cf93	-0.025611674
90	0xbd257e76	-0.040403806
91	0xbc242698	-0.010018967
92	0xbd05b3d5	-0.032642204
93	0x3c8945b1	0.016756864
94	0xbd1aca99	-0.03779087
95	0xbd0a5c69	-0.033779535
96	0xbaa28e3f	-0.0012402012
97	0xbbb6fe2e	-0.0055845
98	0xbc332301	-0.010933639
99	0x3cb2b5d3	0.021815216
100	0xbc5339ed	-0.012892229
101	0xbc37dfe2	-0.011222811
102	0x3c0fe80d	0.008783353
103	0xbd0fd49d	-0.035114873
104	0xbcbf1d0e	-0.023329284
105	0x3b8fe74d	0.004391587
106	0x37d1cdc0	2.5010551e-05
107	0xbcb05611	-0.021525415
108	0xbcaf1a8d	-0.021374965
109	0xbba3f425	-0.0050034695
110	0x3c3affdf	0.0114135435
111	0xbcedca69	-0.02902718
112	0xbcaef21b	-0.02135568
113	0xbcdcec23	-0.026968068
114	0xbbd2f87c	-0.006438313
115	0xba110a78	-0.0005532871
116	0xbc30e115	-0.010795851
117	0xbccfe479	-0.025377499
118	0xbc2ac9d6	-0.010424098
119	0xbd2f1315	-0.042742807
120	0x3bb1f3b9	0.0054306653
121	0x3c6d1dec	0.014472466
122	0xbd29d6a1	-0.04146445
123	0xbbe74b52	-0.0070585394

sequential/dense_1/BiasAdd/ReadVariableOp f4 [256]
0	0xbb06cd70	-0.0020569228
1	0xbbb74d88	-0.0055939592
2	0xbbeb132c	-0.0071739163
3	0xbc535813	-0.0128994165
4	0xbc20ad85	-0.009806995
5	0xbcdad5a4	-0.0267132
6	0xbc8e4c47	-0.017370356
7	0xbc59f68e	-0.013303412
8	0xbc3df994	-0.011595149
9	0xbc0bc3e7	-0.0085305935
10	0xbcba04d2	-0.022707377
11	0x3c47a172	0.012184488
12	0x3bdc8485	0.0067296647
13	0x3c0a6cc5	0.008448784
14	0xbbd96777	-0.0066346484
15	0xbc22ee6e	-0.009944541
16	0xbbbbac28	-0.0057273097
17	0xb8c95a76	-9.6012765e-05
18	0xbcc76890	-0.024341851
19	0xbd0b9ebf	-0.03408694
20	0x3c198395	0.0093697505
21	0xbc83d932	-0.016094778
22	0xbc9aa6d8	-0.018878385
23	0xbcaf84c7	-0.021425618
24	0xbc911d3f	-0.017714141
25	0xbbf50588	-0.007477466
26	0xbc67712d	-0.014126104
27	0xbcdf8149	-0.027283328
28	0x3b8fcf6b	0.00438874
29	0xbbd5fce3	-0.0065303906
30	0xbcd59f23	-0.026076859
31	0xb9aa3ef6	-0.00032471836
32	0xbc350aa8	-0.011049904
33	0xbaa0ef20	-0.0012278296
34	0xbc0679f1	-0.008207784
35	0x3a91c66e	0.0011121759
36	0xbb9186a3	-0.004441099
37	0xbce0aad0	-0.0274252
38	0x3b600f0b	0.0034188654
39	0xbd3c3c90	-0.045956194
40	0x3c733b4c	0.01484568
41	0xbc24d65e	-0.010060875
42	0xbc7c7de6	-0.015410876
43	0xbca83bc6	-0.020536315
44	0xbc7ccb34	-0.015429307
45	0xbc25f3f5	-0.010128965
46	0xbcae800d	-0.021301294
47	0xbb32287f	-0.0027184782
48	0xbc726106	-0.01479364
49	0xbc50324e	-0.012707306
50	0xbc83e2b2	-0.016099308
51	0xbc003ea2	-0.007827433
52	0xbcd62aff	-0.026143549
53	0xbd0b3c8f	-0.0339933
54	0x3b0421e5	0.0020161804
55	0xbd1a6a67	-0.03769913
56	0xbcff2f58	-0.031150505
57	0xbbe86b0f	-0.0070928405
58	0x3b734f00	0.0037125945
59	0xbc8863e2	-0.01664919
60	0xbc11d13a	-0.008899981
61	0xbc8fa4b6	-0.017534595
62	0xbc2cfb41	-0.0105579505
63	0x3bdeb980	0.0067970157
64	0xbcef42c7	-0.029206647
65	0xbc46d3af	-0.01213543
66	0x3ad41698	0.001618105
67	0xbc71aa99	-0.014750146
68	0xbc6d8878	-0.014497869
69	0x3c2b59bb	0.010458405
70	0x3a809c0a	0.0009812128
71	0xbd333863	-0.043754946
72	0xbcc76402	-0.02433968
73	0xbc961a25	-0.018323014
74	0xbbade919	-0.0053073284
75	0xbcc6bc33	-0.024259662
76	0x3c2eface	0.010679914
77	0xbb1dbc68	-0.0024068598
78	0xbcc62d21	-0.024191441
79	0xbc5495bd	-0.0129751535
80	0xbc29c5aa	-0.010362068
81	0xbcdf6706	-0.027270805
82	0xbb14298a	-0.0022607767
83	0xbc442763	-0.011972281
84	0xbc4711bb	-0.012150223
85	0x3a80a3ef	0.0009814481
86	0xbc5bc358	-0.013413273
87	0xbc69d3bf	-0.014271676
88	0xbcce6db8	-0.025198802
89	0xbcc80123	-0.024414605
90	0x3be7ec31	0.0070777168
91	0xbc8950f5	-0.016762236
92	0xbcaa4b5d	-0.02078789
93	0xbc5bf067	-0.013424016
94	0xbca315f7	-0.019907935
95	0xbcca36a0	-0.02468425
96	0x3b3416c7	0.0027479397
97	0xbc605332	-0.01369171
98	0xbbfcca1d	-0.0077145235
99	0xbd43a983	-0.04776908
100	0xbcece960	-0.028919876
101	0x3ca557aa	0.020183403
102	0x3b17b9a7	0.002315143
103	0xbc03660e	-0.008019937
104	0xbc914b07	-0.017735971
105	0xbbae6434	-0.0053220037
106	0xbbbef913	-0.005828032
107	0xbc1f68b8	-0.009729557
108	0xbcd0e1f6	-0.025498372
109	0xbc5ba524	-0.013406072
110	0x3b847bbb	0.00404307
111	0xbc0a335c	-0.008435097
112	0x3b4456c0	0.0029958934
113	0xbcfa6a68	-0.030568317
114	0xbbb8f08e	-0.0056439107
115	0xbd18e8d8	-0.037331432
116	0xbaf20c87	-0.0018466868
117	0xbc35f6a7	-0.01110617
118	0xbcd2d845	-0.025737891
119	0xbaa6ed49	-0.0012735511
120	0xbceb16aa	-0.02869733
121	0xbcaa4bf1	-0.020788165
122	0xbc6b3a7f	-0.014357208
123	0x3b217316	0.0024635247
124	0xb9a97850	-0.00032323832
125	0xbc6a04dc	-0.014283385
126	0xbc65b828	-0.014020957
127	0x3b93c8b6	0.0045100106
128	0x38d95b4d	0.000103643724
129	0xbb40e4d4	-0.0029433267
130	0xbc04c0fb	-0.008102651
131	0xbc3eb5a7	-0.011639989
132	0xbd01f8e9	-0.03173152
133	0xbc985daf	-0.01859936
134	0xbbbb7b6e	-0.005721501
135	0xbcb0a98c	-0.021565221
136	0xbc9c0973	-0.019047474
137	0xbc8535ba	-0.01626097
138	0xbcc43e98	-0.023955628
139	0x3bea80fb	0.007156489
140	0xbb9904dc	-0.0046697687
141	0xba5eccba	-0.00084991346
142	0xbc0e5445	-0.008687084
143	0xbc85d04f	-0.01633468
144	0xbb0254d3	-0.0019886985
145	0xbc076e54	-0.00826605
146	0xbc8faee1	-0.017539443
147	0xbcad3815	-0.021144906
148	0xbc2385f8	-0.009980671
149	0xbb35d607	-0.0027745978
150	0x3c3dc740	0.011583149
151	0xbcc25ac1	-0.023724915
152	0x3c2806d0	0.0102555305
153	0x3b31ee0e	0.0027149948
154	0xbcba0c7f	-0.022711037
155	0x3bd17d9d	0.006393148
156	0x3b92b454	0.004477063
157	0xba85441d	-0.0010167394
158	0xbc5867b9	-0.013208323
159	0xbc890dd4	-0.016730227
160	0xbbf2772c	-0.0073994603
161	0xbcc4e10f	-0.024033098
162	0xbc0edd92	-0.008719819
163	0xbc63b1a4	-0.013897333
164	0xbbebba26	-0.0071938215
165	0xbce0dba6	-0.027448487
166	0xbc325212	-0.010883825
167	0xbc7c2fff	-0.015392303
168	0x3b7c5f94	0.0038509117
169	0x3a31dff4	0.0006785386
170	0x3c5aa781	0.0133456
171	0xbbd88ecc	-0.0066088196
172	0xbc2c1008	-0.010501869
173	0x3c0e7107	0.00869394
174	0xbb049c2e	-0.0020234692
175	0xbcb6d0d6	-0.022316378
176	0xbbd36224	-0.0064509083
177	0x3b970f9f	0.0046100165
178	0xbcb48e21	-0.022040429
179	0xbbcf12b7	-0.0063193697
180	0xbc7904ca	-0.015198896
181	0xbc4f2788	-0.012643702
182	0xbbd016a9	-0.0063503576
183	0xbd4ebc34	-0.050472453
184	0xbc1b76e9	-0.0094888
185	0x3ac4ca10	0.0015013833
186	0xbd4cf2d7	-0.050036278
187	0xbcc0b81e	-0.023525294
188	0xbbab0996	-0.0052196486
189	0xbc4b312d	-0.012401861
190	0xbc4a34f5	-0.0123417275
191	0xbce0c2a2	-0.027436558
192	0xbcc30e29	-0.023810463
193	0xbc04a5a7	-0.008096135
194	0x3c3f30ee	0.011669381
195	0xbc017129	-0.007900515
196	0xbc575a89	-0.013144144
197	0xbc82ce5c	-0.01596754
198	0xbc401944	-0.011724774
199	0x3c18b51f	0.009320526
200	0x3ae5b641	0.0017525629
201	0x3b4ecdd4	0.0031555789
202	0xbca88023	-0.020568913
203	0x3caf38b7	0.021389348
204	0x390beb51	0.00013343735
205	0xbc7307d4	-0.014833409
206	0xbc2f14d9	-0.010686123
207	0xbba8ded7	-0.0051535177
208	0xbc46d5ce	-0.012135936
209	0xbcb323d5	-0.021867672
210	0xb7eb1b68	-2.8026945e-05
211	0xbc9d2631	-0.01918325
212	0xbc9e6139	-0.019333469
213	0xbd028362	-0.031863578
214	0xbb02a279	-0.0019933267
215	0xbc8fc1ec	-0.017548524
216	0xbc43054d	-0.011903119
217	0xbcf94fc6	-0.030433547
218	0xbbc2fe15	-0.005950699
219	0xbc1c8480	-0.009553075
220	0x3b5155a1	0.0031941908
221	0xbcbbae76	-0.022910338
222	0x3b03fbc6	0.0020139082
223	0x39091bc6	0.00013075685
224	0xbc9a3778	-0.018825278
225	0xbc578ffe	-0.013156889
226	0xbc5ea4e3	-0.013589117
227	0xbbbe3b61	-0.0058054184
228	0xbc819467	-0.015817834
229	0xbce12e4a	-0.027487893
230	0xbc178fe8	-0.0092506185
231	0xbbdf5fdf	-0.0068168486
232	0xbab19c27	-0.0013550565
233	0x3b977dd1	0.004623153
234	0xbc0600b3	-0.008178878
235	0x3c234ccd	0.009967041
236	0xbba365ae	-0.0049864864
237	0xbc9b0cba	-0.018926967
238	0xbc9e40b6	-0.019317966
239	0xbcb6d2dd	-0.022317344
240	0xbce8aa92	-0.028401647
241	0xbbab792d	-0.005232951
242	0xbc6aed4e	-0.014338804
243	0xbc94db96	-0.018171113
244	0xbc53dc59	-0.012930953
245	0xbbbd23e3	-0.0057721003
246	0xbc8c8c40	-0.01715672
247	0x3a8b774d	0.0010640413
248	0xbb387ce3	-0.002815061
249	0x3b0abd5f	0.0021170003
250	0xbcb71109	-0.02234699
251	0xbc496f09	-0.012294539
252	0xbc869dda	-0.016432691
253	0xbce33c62	-0.027738754
254	0xbc296537	-0.010339073
255	0xbbf7c0e3	-0.0075608357

sequential/dense/MatMul f4 [512, 52]
0	0x3d3a2d19	0.045453165
1	0x3cd8014b	0.026367804
2	0x3d6ac088	0.05731252
3	0xb9a0900e	-0.00030624907
4	0x3daaaa04	0.08333209
5	0xbde09226	-0.109653756
6	0xbdaed128	-0.08535987
7	0xbb48f4e5	-0.0030663547
8	0xbce553ab	-0.027993998
9	0x3d327939	0.04357264
10	0xbd11e56f	-0.035619196
11	0xbd895023	-0.06704738
12	0x3d587ed8	0.052855343
13	0xbdb2ff07	-0.08740049
14	0xbdefc1b0	-0.11706865
15	0x3dac8c0b	0.084251486
16	0xbc14d31a	-0.009083534
17	0x3d20caf8	0.039256066
18	0x3d4a183e	0.049339525
19	0x3c2f0b0d	0.010683787
20	0x3cb05340	0.021524072
21	0xbb88e210	-0.0041773394
22	0xbd92f843	-0.071762584
23	0xbdc1afb8	-0.09457344
24	0x3d98879c	0.074477404
25	0x3d860b3c	0.065451115
26	0xbd907272	-0.07053079
27	0xbbb84dd6	-0.005624513
28	0x3d75792e	0.05993002
29	0x3cb2e11e	0.02183586
30	0x3daa15c9	0.083049364
31	0x3da63623	0.081157945
32	0x3b2dea00	0.002653718
33	0xbd2960ed	-0.0413522
34	0xbcc6bd95	-0.024260322
35	0x3d5365bb	0.05161069
36	0xbd6cfc94	-0.057858065
37	0x3dfa873c	0.12232825
38	0x3d3c1072	0.04591412
39	0xbc960211	-0.018311532
40	0xbdd00cfa	-0.10158725
41	0x3c3bc1c4	0.011459772
42	0xbe2ffefa	-0.1718711
43	0xbdaf28fc	-0.08552739
44	0xbe1df88a	-0.15426841
45	0xbd8e7fe4	-0.06957987
46	0x3da5e316	0.08099954
47	0xbe20632e	-0.15662834
48	0xbe276e94	-0.16350776
49	0x3da2d4b1	0.07950724
50	0xbe0ca02d	-0.13732977
51	0x3dd23096	0.10263173
52	0xbdd0213d	-0.1016259
53	0xbdd5ca66	-0.10438995
54	0x3d713f54	0.058898285
55	0xbde9b0d8	-0.114106834
56	0x3da70180	0.08154583
57	0x3d8c05c4	0.06837037
58	0xbd6bd6d2	-0.057577915
59	0xbcd09d06	-0.0254655
60	0x3d36420a	0.044496574
61	0x3d8abdf8	0.06774515
62	0xbd57725a	-0.05259929
63	0x3d39aaeb	0.045329016
64	0xbd51ad7b	-0.051190834
65	0xbd3e2961	-0.04642618
66	0x3d9c527d	0.07632921
67	0xbd62c964	-0.055367842
68	0x3cd30e11	0.025763543
69	0x3d0b1b28	0.033961445
70	0xbd32c7ff	-0.043647762
71	0x3cc1f20c	0.023674987
72	0x3d1e1e26	0.03860297
73	0xbd02c250	-0.031923592
74	0x3df31754	0.11869684
75	0x3d1c544d	0.038166333
76	0x3d64af22	0.055831082
77	0xbe0cf99e	-0.13767096
78	0xbd45193d	-0.048119772
79	0xbd579312	-0.05263049
80	0xba6ded15	-0.00090761605
81	0xbd7fbd73	-0.062436532
82	0xbdb6e126	-0.089296624
83	0xbd670e19	-0.05640993
84	0x3d6a7b39	0.05724642
85	0xbc8d7957	-0.017269773
86	0xbd0ea312	-0.034823485
87	0xbcaf3a10	-0.021389991
88	0xbda2d1b2	-0.079501525
89	0xbacbed43	-0.001555838
90	0xbdd4b558	-0.10386151
91	0x3d7d0977	0.061776605
92	0x3cd8e0a3	0.026474303
93	0x3bd87e3d	0.0066068457
94	0xbd2e6b74	-0.042582944
95	0x3d4823f2	0.048862405
96	0x3dc69747	0.096968226
97	0xbd5c6464	-0.053806677
98	0xbd057707	-0.032584216
99	0xbde3d3b1	-0.11124361
100	0x3df73897	0.120713405
101	0xbdbf9222	-0.093540445
102	0x3dd3bb20	0.10338426
103	0x3c6bcc61	0.014391989
104	0xbdeb26b0	-0.114819884
105	0x3daeff1f	0.08544754
106	0xbc988c54	-0.018621601
107	0xbc7d875f	-0.0154741695
108	0x3dadd7ad	0.084884025
109	0x3e383ab8	0.1799115
110	0xbdd03f47	-0.10168319
111	0xbce3714a	-0.027763981
112	0xbdb6ff94	-0.089354664
113	0x3d3d2fda	0.046188213
114	0xbd98328a	-0.074315146
115	0xbda6189d	-0.08110163
116	0xbcecd60f	-0.028910665
117	0xbd60b6fc	-0.054862007
118	0x3cba6cbf	0.022756932
119	0x3c5ae9e7	0.013361431
120	0xbba1ee75	-0.0049417564
121	0xbd6b62a2	-0.05746711
122	0xbdc4ebbe	-0.09615277
123	0x3e2704d6	0.16310439
124	0x3d91c6e0	0.071180105
125	0xbe11be6b	-0.14232795
126	0xbcf63c19	-0.030057954
127	0x3dc7ac21	0.09749628
128	0xbd8e3b2f	-0.06944882
129	0xbd06ead1	-0.032938782
130	0xbe0dd209	-0.13849653
131	0xbdd14011	-0.10217298
132	0xbc1469f8	-0.009058468
133	0x3d8169d9	0.06319017
134	0xbce99e96	-0.028518002
135	0xbe01b995	-0.1266845
136	0xbdc7cb60	-0.097555876
137	0xbdbb7968	-0.09154016
138	0x3cefce0b	0.029273054
139	0xbd1bc109	-0.03802589
140	0x3bfe61fa	0.0077631446
141	0xbd317906	-0.043328308
142	0x3dbf858a	0.093516424
143	0x3d9945e0	0.07484031
144	0x3cc55b97	0.024091525
145	0x3d54d20e	0.051958136
146	0x3d268f6e	0.04066413
147	0x3cc34459	0.023836302
148	0x3d9ffe3b	0.078121625
149	0xbdb3ae28	-0.08773452
150	0x3d8c44f0	0.06849086
151	0xbcb6ce37	-0.022315128
152	0x3d985694	0.074383885
153	0x3ca0abad	0.019613111
154	0xbd6ef4af	-0.058338817
155	0xbe07c992	-0.13260487
156	0xbb8d43ee	-0.0043110764
157	0xbc770c42	-0.015078606
158	0xbc290ff2	-0.010318743
159	0xbc5baf4b	-0.013408492
160	0xbd64e821	-0.055885438
161	0x3e01401a	0.12622109
162	0xbc88470a	-0.016635437
163	0xbcbb2eaf	-0.022849409
164	0x3dd0c538	0.101938665
165	0xbd129c52	-0.03579361
166	0xbdb29b55	-0.087210335
167	0xbdba8575	-0.09107486
168	0xbc9991b3	-0.018746233
169	0x3d67a80d	0.05655675
170	0x3d112132	0.03543205
171	0x3dc06778	0.09394735
172	0xbd86d2ec	-0.06583199
173	0xbcd32122	-0.025772635
174	0x3d8515ff	0.06498336
175	0xbcd7ca93	-0.026341712
176	0x3de92ca5	0.113854684
177	0xbdd2e211	-0.10297025
178	0x3cab2282	0.020890478
179	0xbdc4e2a5	-0.096135415
180	0xbcc70524	-0.024294443
181	0x3d4eb383	0.050464164
182	0x3d8285df	0.0637319
183	0x3d8eb578	0.06968206
184	0xbd283cbb	-0.041073542
185	0x3d8aa659	0.067700095
186	0x3dedc15c	0.11609146
187	0xbd6ea91f	-0.058266755
188	0x3d530084	0.051514164
189	0xbd873d50	-0.06603491
190	0xbdb69297	-0.089146785
191	0xba112418	-0.00055366894
192	0xbcdaecc2	-0.026724223
193	0x3c91789c	0.017757706
194	0x3c882ac0	0.016621947
195	0x3dc537fb	0.09629818
196	0xbdd092f0	-0.10184276
197	0x3db14571	0.08655823
198	0x3de794aa	0.11307652
199	0xbdca8aed	-0.09889779
200	0xbd4821b8	-0.04886028
201	0x3c9ccf81	0.019141914
202	0xbdd589c4	-0.10426667
203	0x3df1a4dd	0.11799023
204	0xbdc358c1	-0.09538413
205	0xbda35184	-0.07974532
206	0xbe105ce9	-0.14097942
207	0xbda84a1e	-0.08217262
208	0xbd454e9c	-0.04817067
209	0x3d0388d2	0.032112904
210	0xbda57b46	-0.08080153
211	0x3cea3e1a	0.028594065
212	0xbd35a8bf	-0.044350382
213	0x3ca911f0	0.020638436
214	0x3d973950	0.07383978
215	0xbdf95ab4	-0.121755034
216	0xbbf99c95	-0.007617543
217	0xbda05154	-0.07828012
218	0xbd1f0f16	-0.038832746
219	0x3d2a1a89	0.041529212
220	0xbcdea681	-0.027179005
221	0x3d80d600	0.06290817
222	0xbdaa3933	-0.08311691
223	0x3d9e801c	0.07739279
224	0xbda15ae0	-0.07878661
225	0x3c2fcd1e	0.010730056
226	0xbc9fef7c	-0.019523375
227	0xbdb05559	-0.08610029
228	0x3cca9628	0.024729803
229	0xbcd5e935	-0.026112178
230	0xbd97dbc4	-0.07414964
231	0x3d3e012f	0.046387848
232	0x3d25135f	0.040301677
233	0xbd926f3a	-0.07150121
234	0xbdec0b8e	-0.115256414
235	0xbd1ad6ea	-0.037802614
236	0xbd5dbc5b	-0.054134708
237	0xbde14c33	-0.11000862
238	0x3d5e74bc	0.054310545
239	0xbc7a5d0a	-0.015280971
240	0xbda807f1	-0.0820464
241	0x3d443a91	0.047907416
242	0xbd47c10b	-0.048768084
243	0x3d84a1e4	0.06476191
244	0xbcc2b924	-0.023769923
245	0x3dcda202	0.10040666
246	0xbd777026	-0.060409687
247	0x3c6fed59	0.01464399
248	0xbce6fd78	-0.028197035
249	0x3d91913b	0.07107779
250	0x3cb53be4	0.022123285
251	0xbd60fb19	-0.054926965
252	0xbd1dc129	-0.03851429
253	0xbe099787	-0.1343671
254	0xbe0eb96e	-0.13937923
255	0x3c7ca3a1	0.015419872

sequential/dense_1/MatMul f4 [256, 512]
0	0x3de74e94	0.112942845
1	0xbbe03ade	-0.006842955
2	0xbdd2c2bd	-0.1029105
3	0x3d023496	0.03178843
4	0xbd76df11	-0.060271326
5	0x3d9b77b7	0.07591193
6	0xbd88a01b	-0.06671163
7	0x3cecf331	0.028924556
8	0x3d857922	0.06517245
9	0x3d36f9dc	0.04467188
10	0xbd454c04	-0.048168197
11	0xbd58fc4e	-0.05297499
12	0x3c21c592	0.009873765
13	0xbda25632	-0.07926597
14	0xbd245200	-0.040117264
15	0x3cf773e4	0.030206628
16	0xbd516056	-0.051117264
17	0x3d6d50b7	0.057938304
18	0x3d3d37d1	0.04619581
19	0xbba067c8	-0.004895184
20	0x3c3fffda	0.011718715
21	0x3d199488	0.037495166
22	0xbdc9a1e1	-0.09845329
23	0xbd48ad44	-0.048993364
24	0x3dc0962d	0.09403644
25	0xbd16e3a1	-0.036838178
26	0x3d5a26b7	0.053259578
27	0xbd1dd41d	-0.038532365
28	0x3da39544	0.079874545
29	0xbba2e0ad	-0.004970631
30	0xbc404f85	-0.011737709
31	0x3d462f85	0.048385162
32	0x3d207457	0.03917345
33	0xbd80b375	-0.06284229
34	0xbd913992	-0.07091059
35	0xbd7826ba	-0.060583808
36	0xbd076e55	-0.033064205
37	0xbdfbb132	-0.12289657
38	0x3bf8f943	0.0075980737
39	0x3c9e17fb	0.019298544
40	0xbce6cd39	-0.02817403
41	0xbda506c5	-0.08057932
42	0xbde3cc33	-0.11122932
43	0xbd307768	-0.043082625
44	0xbdb18c84	-0.08669379
45	0x3d0d757e	0.034535877
46	0x3bb509d5	0.0055248537
47	0xbc12a507	-0.008950478
48	0x3a5480b9	0.00081063394
49	0xbd03c820	-0.032173276
50	0xbd2e2920	-0.04251969
51	0x3e09a9db	0.13443701
52	0x3d8aa76c	0.067702144
53	0xbd4745c7	-0.04865053
54	0xbd1572bd	-0.036486376
55	0x3da249e9	0.079242535
56	0x3d5e3299	0.054247472
57	0xbdb589c0	-0.08864164
58	0xbd4d05c6	-0.050054334
59	0x3c7a0f35	0.015262415
60	0x3c59d644	0.013295714
61	0xbd51c45c	-0.051212654
62	0x3dcaff4d	0.09911976
63	0xbcdbbfa1	-0.026824774
64	0xbd947186	-0.072482154
65	0xbd4c1557	-0.04982504
66	0xbc085589	-0.008321174
67	0x3d7c1cf3	0.061551046
68	0xbd3ad920	-0.045617223
69	0x3c89c291	0.01681641
70	0xbbd63670	-0.006537251
71	0xbcebd9dc	-0.028790407
72	0xbd1336b8	-0.035940856
73	0xbda98f7e	-0.08279322
74	0xba5329af	-0.00080552226
75	0x3d5d61fd	0.054048527
76	0xbdd88f64	-0.105742246
77	0x3d10ec51	0.03538162
78	0x3d218497	0.03943309
79	0x3d9194c7	0.07108455
80	0xbd269017	-0.04066476
81	0xbd8c336b	-0.06845745
82	0x3d76da66	0.060266875
83	0xbd764219	-0.06012163
84	0x3d2ab85b	0.04167972
85	0xbdc953f1	-0.09830464
86	0xbd65f765	-0.056144137
87	0xbd341aa9	-0.043970738
88	0x3d94b0a7	0.07260256
89	0x3d304cbf	0.04304194
90	0xbc14706c	-0.009060007
91	0x3e238dc8	0.15972054
92	0xbd91d38c	-0.071204275
93	0xbdb83583	-0.089945816
94	0xbcd00681	-0.025393726
95	0xbd03df48	-0.03219536
96	0x3d216110	0.039399207
97	0xbcbf488a	-0.023350019
98	0xbdabcd1d	-0.08388732
99	0xbca591f4	-0.020211197
100	0x3d72bfa9	0.059264813
101	0x3c94746b	0.018121919
102	0xb872b3c6	-5.7864723e-05
103	0x3d01519d	0.031571973
104	0xbda64737	-0.08119052
105	0xbc8e17c0	-0.01734531
106	0x3d2caa20	0.04215443
107	0x3c88d49a	0.016702939
108	0xbd5372cd	-0.051623154
109	0x3d9b23be	0.07575177
110	0xbdca03d1	-0.09864009
111	0x3db73318	0.08945292
112	0x3baabdb1	0.0052106013
113	0x3d3275f9	0.04356954
114	0x3d43e3de	0.047824733
115	0xbd5ee134	-0.05441399
116	0xbd060280	-0.032717228
117	0xbb1cf806	-0.0023951544
118	0x3cca8cc2	0.024725322
119	0xbd96f372	-0.07370652
120	0x3a928fcd	0.0011181772
121	0xbbc0c043	-0.0058822944
122	0xbdb172ea	-0.08664496
123	0x3d78bee2	0.060728915
124	0xbc8acf89	-0.016944664
125	0xbd5f0c4e	-0.054455094
126	0x3cda4c41	0.026647689
127	0x3d66a733	0.056311797
128	0x3cddc343	0.027070647
129	0x3d40b559	0.047047947
130	0x3b7d251c	0.0038626855
131	0x3da86464	0.08222273
132	0xbdcee177	-0.10101598
133	0xbd863907	-0.06553846
134	0xbc8dbd15	-0.017302075
135	0xbdb2304c	-0.08700618
136	0x3d6f75b1	0.05846185
137	0xbdafe83a	-0.085892156
138	0x3d390a6a	0.045175947
139	0x3cb0c32c	0.02157744
140	0x3d14d6a7	0.03633752
141	0xbd4a9b61	-0.049464587
142	0x3ccc2d97	0.024924083
143	0x3d9d9d4f	0.0769602
144	0xbd4972a3	-0.04918159
145	0xbdf61bbe	-0.1201701
146	0x3b670d30	0.0035255663
147	0x3d48b62c	0.049001858
148	0x3d541a71	0.05178303
149	0xbc6bb1f9	-0.014385694
150	0x3dd32d21	0.10311342
151	0x3c5258d2	0.012838559
152	0xbd4cf676	-0.05003973
153	0x3d3ae9dd	0.045633186
154	0xbc9ab576	-0.018885355
155	0xbd8b1f01	-0.06793023
156	0x3c547d4c	0.012969326
157	0xbd5dd110	-0.054154456
158	0x3dc4b4bf	0.09604787
159	0x3d66c59d	0.056340802
160	0xbd3a5fb2	-0.04550142
161	0xbc044800	-0.008073807
162	0xbc8efd31	-0.017454715
163	0xbd6c20a5	-0.05764832
164	0x3c4926f2	0.012277352
165	0xbdb029d1	-0.08601726
166	0x3cd2de01	0.025740625
167	0xbd518d6c	-0.05116026
168	0x3ce71594	0.028208531
169	0xbda53fc9	-0.08068807
170	0x3c1db6fb	0.0096261455
171	0x3d022b13	0.03177936
172	0x3d1eafda	0.038741924
173	0x3b3e58ce	0.002904463
174	0xbd63146c	-0.055439398
175	0x3d01cda1	0.031690244
176	0xbbb1917b	-0.005418954
177	0xbbc6da96	-0.006068538
178	0xbcd742e0	-0.026277006
179	0xbc9d37ae	-0.01919159
180	0x3da98c52	0.08278717
181	0xbbe132cb	-0.00687251
182	0xbd11652e	-0.035496883
183	0xbb57b351	-0.0032913277
184	0xbd71330c	-0.058886573
185	0x3d88bdcf	0.06676828
186	0xbc0370b3	-0.008022475
187	0xbdc081b4	-0.09399739
188	0x3d5659b6	0.05233165
189	0xbc32a6f8	-0.010904066
190	0xbd7309a1	-0.059335355
191	0x3d3727ef	0.044715818
192	0xbda820b8	-0.082093656
193	0xbd085f7b	-0.033294182
194	0xbc5b7f95	-0.013397117
195	0x3d4f9389	0.05067781
196	0x3cd2f84e	0.025753167
197	0xbd5d60e3	-0.054047477
198	0x3d4e4e64	0.050367728
199	0x3dab84ed	0.08374963
200	0x3d8686f2	0.065687075
201	0xbd0bd90f	-0.03414255
202	0x3da0fbf3	0.078605555
203	0x3ca2784f	0.019832758
204	0xbc0613a9	-0.008183398
205	0x3d5b07f0	0.053474367
206	0x3d47e8ed	0.04880612
207	0xbd018ee7	-0.031630423
208	0xbc4f4385	-0.012650375
209	0x3dae68b9	0.08516068
210	0x3d80f742	0.06297161
211	0x3d953ef2	0.072873965
212	0xbd2edc9a	-0.04269085
213	0xbdc1a55b	-0.09455367
214	0x3d5659c8	0.052331716
215	0xbdb381f0	-0.08765018
216	0xbc2987dd	-0.010347334
217	0x3d4cdb85	0.050014038
218	0xb98b93ca	-0.00026622257
219	0xbd5331c2	-0.051561125
220	0x3d991412	0.07474531
221	0x3d27689f	0.04087126
222	0x3d4e0dc6	0.050306104
223	0x3dd45568	0.103678524
224	0x3df65c9d	0.12029383
225	0x3d6c6d06	0.05772116
226	0xbd8b84b1	-0.06812418
227	0xbd8cb75d	-0.06870911
228	0x3dd0eccb	0.10201415
229	0xbd5adc55	-0.05343278
230	0xbc4bb1cc	-0.012432527
231	0xbda903bc	-0.082526654
232	0x3dac3516	0.08408563
233	0x3d9443c2	0.07239486
234	0xbd941035	-0.07229654
235	0xbcf1ea50	-0.029530674
236	0x3d539c45	0.051662702
237	0x3c8f2898	0.017475411
238	0x3d404e44	0.04694964
239	0x3d94dfcd	0.07269249
240	0xbd2430f7	-0.04008576
241	0x3d39e7c8	0.04538706
242	0x38ff2334	0.000121659046
243	0xbd630a06	-0.05542948
244	0xbdda7b80	-0.10668087
245	0x3d42f296	0.04759463
246	0xbcaefc1c	-0.02136045
247	0x3d9600f0	0.073243976
248	0x3ca67616	0.02031998
249	0x3d6f8c1e	0.058483236
250	0x3c41bae5	0.011824344
251	0xbd23713c	-0.03990291
252	0xb99cc907	-0.00029904416
253	0x3c96c656	0.01840512
254	0xbdae6436	-0.085152075
255	0x3e18a214	0.14905578

sequential/dense_2/MatMul f4 [124, 256]
0	0x3da6c41d	0.081428744
1	0x3d863ca4	0.06554535
2	0x3ce50ffd	0.027961725
3	0x3e11dff2	0.14245585
4	0x3d74e2cb	0.0597866
5	0xbde336b6	-0.1109442
6	0x3d1875b4	0.037221625
7	0x3c104f47	0.008807964
8	0x3db4e228	0.088321984
9	0x3db132c3	0.0865226
10	0x3d802451	0.06256927
11	0xbcce95f5	-0.02521799
12	0xbd9399ce	-0.0720707
13	0x3d8029a7	0.062579446
14	0x3e0207cd	0.12698288
15	0xbe039325	-0.128491
16	0xbdae559f	-0.08512425
17	0xbc2d880f	-0.010591521
18	0xbd9b5f35	-0.07586519
19	0x3cb9f3c6	0.022699248
20	0xbe012df8	-0.12615192
21	0xbd1e977e	-0.038718693
22	0x3e18632d	0.14881583
23	0x3d405816	0.046959005
24	0x3df93977	0.12169164
25	0xbe20c1b6	-0.15698895
26	0x3d288326	0.041140698
27	0xba3dcf69	-0.00072406844
28	0x3bb6ba5f	0.0055764164
29	0xbd05de0d	-0.032682467
30	0xbd7cb9be	-0.061700575
31	0xbd5764e2	-0.052586444
32	0xbd851fd6	-0.06500213
33	0xbd1345fe	-0.03595542
34	0x3a66cf51	0.0008804696
35	0x3d2c6bb5	0.042094905
36	0xbd55abb3	-0.0521657
37	0x3cbba054	0.022903599
38	0x3c8a47c6	0.016879927
39	0x3aa30d63	0.0012439903
40	0x3e2b2d06	0.16716394
41	0xbd236ca5	-0.039898533
42	0xbda31bd7	-0.079642944
43	0x3d9fd29e	0.07803844
44	0xbdb6e47b	-0.08930298
45	0x3c8fe1ef	0.017563788
46	0xbd333973	-0.04375596
47	0xbdb13397	-0.08652418
48	0xbd69c6e3	-0.05707444
49	0x3db8e69e	0.09028362
50	0x3ca6db65	0.020368287
51	0x3d7fdd6d	0.062467027
52	0x3d94c9d8	0.07265061
53	0xbe165071	-0.14679123
54	0x3c79e5d7	0.015252552
55	0x3dd1a32f	0.10236203
56	0x3dadd9a0	0.08488774
57	0x3e23e3da	0.16004887
58	0xbd6bf3bf	-0.0576055
59	0xbcfc4634	-0.030795194
60	0xbaf142fa	-0.0018406801
61	0x3c92e7d2	0.017932806
62	0x3d5c3aad	0.053766895
63	0xbd79551d	-0.060872186
64	0xbc0a954f	-0.0084584495
65	0xbb8b6c5b	-0.0042548603
66	0x3d3e4e4f	0.0464614
67	0x3e225a74	0.15854818
68	0x3da968e6	0.08271961
69	0xbd668a8a	-0.056284465
70	0xbca4ff76	-0.020141345
71	0x3d2fbdd1	0.042905632
72	0xbdfd7981	-0.12376691
73	0x3c89d19c	0.016823582
74	0x3d6aee0f	0.057355937
75	0xbcf357a2	-0.029704873
76	0x3d9d840c	0.076912016
77	0xbcb7f46b	-0.022455415
78	0x3d08f0b9	0.033432696
79	0x3cc1262c	0.023577772
80	0xbd9782dd	-0.07398007
81	0x3d66a93e	0.056313746
82	0xbe2b5b43	-0.16734032
83	0x3db041fc	0.086063355
84	0x3c6558f0	0.013998255
85	0x3b662996	0.0035120002
86	0xbd84afb4	-0.06478825
87	0xbd00460d	-0.031316806
88	0xbc9a8a03	-0.018864637
89	0xbdd7ebeb	-0.10543045
90	0xbcf4077d	-0.029788727
91	0x3dbef633	0.093243025
92	0xbd77d75e	-0.060508125
93	0x3c997082	0.018730406
94	0xbc8219b1	-0.015881391
95	0x3c702dd4	0.014659364
96	0xbd12a1ee	-0.03579896
97	0xbde69429	-0.11258728
98	0xbdab6d6e	-0.083704814
99	0xbda1933b	-0.0788941
100	0x3de33874	0.11094752
101	0x3d19719d	0.037461866
102	0x3bd20f59	0.006410521
103	0x3ca31e7e	0.019912
104	0xbcfe743a	-0.03106128
105	0xbd86faf9	-0.06590838
106	0xbc28e0f5	-0.01030754
107	0x3def40d4	0.11682287
108	0x3d870a4f	0.06593763
109	0xbd4125c2	-0.04715515
110	0xbd267c60	-0.040645957
111	0xbcb089ba	-0.021550048
112	0xbcfb7c34	-0.030698873
113	0x3d98586f	0.07438742
114	0xbbf5616d	-0.0074884207
115	0x3de39803	0.11112978
116	0xbdf4ea59	-0.11958761
117	0x3d4980ee	0.049195223
118	0x3dbb8e27	0.09157973
119	0x3db68109	0.0891133
120	0x3dbb8c5f	0.09157633
121	0xbd3631f6	-0.04448124
122	0x3d0ee7a6	0.034888886
123	0xbd073579	-0.03300998
124	0x3d0dd401	0.03462601
125	0x3d568436	0.05237218
126	0x3dfbf070	0.12301719
127	0x3dbecceb	0.09316429
128	0xbc4d38fc	-0.012525793
129	0xbd88a64a	-0.06672342
130	0xbd454d87	-0.04816964
131	0x3da60caa	0.08107884
132	0x3d182a16	0.03714951
133	0x3d9ad0b8	0.07559341
134	0xbde9740e	-0.11399089
135	0xbd96befc	-0.07360646
136	0xbdb7a764	-0.08967474
137	0x3dcb9d5d	0.09942124
138	0x3d2b0243	0.041750204
139	0xbab87b9c	-0.0014074924
140	0x3df20f46	0.118193194
141	0xbdd5105f	-0.10403513
142	0x3da64c80	0.0812006
143	0x3db2d742	0.087324634
144	0xbdce8ac2	-0.1008506
145	0x3e187970	0.14890075
146	0xbd03d8a0	-0.03218901
147	0x3bd78f10	0.0065783337
148	0x3d5ed9f0	0.05440706
149	0xbd0706d1	-0.032965485
150	0x3c402587	0.011727697
151	0x3d0cc6bf	0.034369227
152	0xbdd551e2	-0.104160085
153	0x3c71c955	0.014757474
154	0xbcae4f8c	-0.021278165
155	0xbdc4aa40	-0.09602785
156	0x3e3412bd	0.17585273
157	0xbd791b76	-0.060817204
158	0xbded17b6	-0.11576788
159	0x3d820181	0.06347943
160	0xbdc9c8ba	-0.09852739
161	0xbdc8a2a9	-0.0979665
162	0x3c61f264	0.013790701
163	0x3d2b3463	0.041798007
164	0xbcedc8b6	-0.02902637
165	0x3d9309e2	0.07179619
166	0x3dd1690e	0.10225116
167	0x3c94de03	0.01817227
168	0x3d6451ea	0.05574218
169	0xbafb1ed8	-0.0019158972
170	0xbdacf383	-0.08444884
171	0xbd8ac908	-0.06776625
172	0xbb96fa99	-0.0046075103
173	0x3d22961b	0.039693933
174	0x3df8f410	0.12155926
175	0x3dc223b7	0.09479468
176	0xbd0b5a16	-0.03402146
177	0xbdea617f	-0.11444377
178	0xbd064618	-0.03278169
179	0xbd379752	-0.044822045
180	0x3e0e216b	0.13879935
181	0x3e26b981	0.16281702
182	0xbcce8af1	-0.025212737
183	0x3db8b266	0.09018402
184	0x3d3cb65a	0.04607234
185	0x3d293802	0.04131318
186	0x3dc8301f	0.09774803
187	0x3d837465	0.06418685
188	0xbcccab3f	-0.024984
189	0x3dfe5cdd	0.12420056
190	0x3e14c750	0.14529157
191	0x3ddcfbf2	0.10790242
192	0xb9101693	-0.0001374132
193	0x3d519a33	0.051172446
194	0xbe1b0487	-0.15138446
195	0x3de5765d	0.11204217
196	0xbe1202b5	-0.14258845
197	0x3d6aea7c	0.057352528
198	0xbde4e7e9	-0.11177046
199	0x3d98e43c	0.07465407
200	0x3d947d52	0.072504655
201	0xbe01ff47	-0.12695037
202	0xbd00be9d	-0.031431783
203	0x3da1f8c1	0.07908774
204	0xbd6c1cec	-0.05764477
205	0x3d79d4dd	0.060994018
206	0xbc962c9e	-0.018331822
207	0x3e055575	0.1302088
208	0x3dcd56af	0.10026299
209	0x3d389129	0.04506031
210	0x3d804b81	0.06264401
211	0xbdd7fe4b	-0.105465494
212	0xbc6573de	-0.014004676
213	0x3d122b9c	0.03568612
214	0xbd2239d0	-0.039605916
215	0xbdc11869	-0.09428484
216	0x3dad1572	0.08451356
217	0xbb8a0906	-0.0042125015
218	0xbe0933ed	-0.13398714
219	0x3dfa4235	0.12219659
220	0x3d808ead	0.06277213
221	0x3d2e9537	0.04262277
222	0xbd3e8a91	-0.046518866
223	0xbe38c6ea	-0.1804463
224	0x3c966b84	0.018361814
225	0x3d52a92d	0.05143087
226	0xbd217832	-0.039421268
227	0x3b8deb39	0.0043310192
228	0xbe097907	-0.13425075
229	0xbc4f6f1d	-0.012660769
230	0x3ca64389	0.020295875
231	0x3c8b943b	0.017038455
232	0x3e0bd789	0.13656439
233	0xbd98f678	-0.07468885
234	0x3d54cba9	0.051952038
235	0x3dac9085	0.084260024
236	0xbcca2361	-0.024675073
237	0x3d83d24a	0.06436594
238	0xbde30295	-0.11084477
239	0x3da0ccc3	0.07851555
240	0xbe1fa336	-0.15589604
241	0xbbe4955b	-0.0069758124
242	0x3d9d7871	0.07688988
243	0x3d79237e	0.060824864
244	0x3d36718b	0.044541877
245	0x3d9a43ae	0.0753244
246	0x3d43b2df	0.047778007
247	0x3dac4f51	0.08413566
248	0xbdf9d00e	-0.121978864
249	0x3ab63746	0.0013901971
250	0x3e0e6ffa	0.13909903
251	0x3be8a0f0	0.0070992634
252	0x3d6488eb	0.055794638
253	0x3e0a8a40	0.135293
254	0x3da2e6d6	0.07954185
255	0x3d63fa44	0.055658594

sequential/dense_3/MatMul f4 [64, 124]
0	0xbe35ce13	-0.17754392
1	0x3e160d57	0.14653526
2	0x3da036cf	0.07822954
3	0x3e013464	0.12617642
4	0x3e334a6e	0.17508861
5	0x3db13285	0.08652214
6	0xbdffc6f5	-0.1248912
7	0x3c873cea	0.016508538
8	0xbdee1d33	-0.11626663
9	0xbd8d5038	-0.06900066
10	0x3e04c36f	0.12965177
11	0xbe068989	-0.13138403
12	0xbc34486d	-0.011003596
13	0xbd33f4d5	-0.043934662
14	0x3d3af71e	0.045645826
15	0xbd71dfd3	-0.059051346
16	0xbe32c3ea	-0.17457548
17	0x3d489c2e	0.04897707
18	0x3e10319e	0.14081427
19	0xbd5a2551	-0.053258244
20	0xbd40ca86	-0.04706814
21	0x3dd25736	0.102705404
22	0xbe6f6c21	-0.23381092
23	0xbe34e320	-0.17664766
24	0xbded3511	-0.11582387
25	0xbcf9c97d	-0.030491585
26	0xbd02f623	-0.031973016
27	0x3e2d693a	0.16934672
28	0x3bcb2101	0.0061990027
29	0xbe1772a0	-0.1478982
30	0x3d3ddcf2	0.046353288
31	0x3cfee768	0.031116202
32	0x3e1e91c7	0.15485297
33	0xbdc1e7ce	-0.09468041
34	0x3d906f75	0.07052509
35	0xbe06073f	-0.13088702
36	0x3c00f711	0.007871405
37	0x3e1e8b16	0.15482745
38	0xbb24fc90	-0.0025174953
39	0x3d6bf132	0.05760307
40	0x3cdaf36b	0.026727399
41	0x3d4bd8a6	0.04976716
42	0xbd5a640b	-0.053318065
43	0xbe1dc855	-0.15408452
44	0xbd574ab2	-0.05256147
45	0x3df66482	0.12030889
46	0x3e105149	0.14093508
47	0x3d90a579	0.070628114
48	0x3d5e9ab3	0.05434675
49	0xbd925dc3	-0.0714679
50	0xbe183874	-0.14865285
51	0xbda1af7b	-0.07894798
52	0x3e27a980	0.16373253
53	0xbcc5a3ee	-0.02412602
54	0xbddd8b99	-0.10817642
55	0x3cd5c9db	0.026097229
56	0x3db15fdc	0.08660862
57	0x3e17bb59	0.14817561
58	0x3db4e9ab	0.08833631
59	0x3d19ea49	0.037576947
60	0x3d0c8a67	0.03431168
61	0xbd413aeb	-0.04717533
62	0xbdaf935d	-0.08573029
63	0xbe22f654	-0.15914279
64	0xbc46b7b2	-0.012128757
65	0xbdc2a4db	-0.095041
66	0xbd92b95a	-0.07164259
67	0xbd69fef2	-0.0571279
68	0x3a74cd59	0.00093384605
69	0xbd30f0c2	-0.043198355
70	0xbe453cf6	-0.19261536
71	0xbde76725	-0.1129897
72	0x3e0d43c3	0.1379538
73	0x3d9ed512	0.07755484
74	0xbd9f5307	-0.07779508
75	0x3df307b0	0.11866701
76	0xbe14a8c6	-0.14517507
77	0xbe2610c4	-0.16217333
78	0x3c0eb337	0.00870972
79	0x3e059fd0	0.13049245
80	0x3db2672d	0.087110855
81	0x3d88d8ed	0.06682
82	0xbd76dffd	-0.060272206
83	0x3d09e8f2	0.03366942
84	0x3db94d26	0.09047918
85	0xbe483882	-0.19552806
86	0xbe43c483	-0.19117932
87	0x3e1bc8f4	0.15213376
88	0x3d6c68a3	0.057716977
89	0x3c66974f	0.014074161
90	0x3db42b2e	0.08797298
91	0x3e3769aa	0.17911401
92	0xbe40da3a	-0.18833247
93	0xbe43da44	-0.1912623
94	0x3ddfe913	0.10933127
95	0x3e1194a1	0.14216854
96	0x3dc369fa	0.09541698
97	0xbd8b72ed	-0.0680903
98	0xbdcb75e4	-0.09934595
99	0x3d422e9e	0.04740774
100	0xbe108a0f	-0.14115165
101	0xbda60aa3	-0.081074975
102	0xbe1e05fc	-0.1543197
103	0x3d26be12	0.04070861
104	0xbe3cd20e	-0.18439505
105	0xbdafd2d7	-0.085851364
106	0x3d96dc4d	0.07366238
107	0x3e4ecc3a	0.20195094
108	0xbe233dad	-0.15941496
109	0xbdcbfee2	-0.099607244
110	0xbd91f312	-0.0712644
111	0x3cd9a6c8	0.026568785
112	0x3cd84fcf	0.026405243
113	0x3d9ea7c2	0.07746841
114	0x3d02f460	0.031971335
115	0x3e23dcc6	0.16002187
116	0x3e0b8c35	0.13627703
117	0x3b96cd5d	0.004602118
118	0xbd286aca	-0.041117467
119	0xbe1e6e8d	-0.1547186
120	0x3e1cc284	0.15308577
121	0xbe321690	-0.1739142
122	0x3d8f7c1a	0.07006092
123	0xbd6414a6	-0.055683754
124	0xbe0f6611	-0.14003779
125	0xbe2b2cbe	-0.16716287
126	0xbd388403	-0.04504777
127	0xbc20feea	-0.009826401
128	0xbdb51738	-0.08842319
129	0xbd88e7b2	-0.066848174
130	0x3cf4e86c	0.029895984
131	0x3d86e6ec	0.065870136
132	0xbde6776a	-0.11253245
133	0x3dfaafdd	0.122405745
134	0x3c349c79	0.011023634
135	0x3db5ee18	0.088833034
136	0xbdc5763b	-0.09641691
137	0x3d714ee5	0.05891313
138	0x3d71b500	0.059010506
139	0x3e240eae	0.16021225
140	0x3e3721b1	0.17883946
141	0xbd0ec418	-0.03485498
142	0x3e520053	0.20507936
143	0xbdf8c9e5	-0.12147883
144	0x3c34dae4	0.011038516
145	0x3e2d4865	0.16922148
146	0xbd1a0a77	-0.037607636
147	0xbd3e05c6	-0.046392225
148	0xbde8a2df	-0.1135919
149	0x3e2eb3e0	0.17060804
150	0xbe0a8001	-0.13525392
151	0xbd017334	-0.031604007
152	0xbd4c01e9	-0.04980651
153	0xbdf3d65b	-0.119061194
154	0x3e0c779b	0.13717501
155	0x3d3f111e	0.046647184
156	0x3c55d072	0.0130501855
157	0x3de95641	0.11393405
158	0x3e09455d	0.13405366
159	0x3d8c8f4f	0.068632714
160	0x3db31b17	0.08745401
161	0xbe211ec1	-0.15734388
162	0x3e1c13b6	0.15241894
163	0x3c92bf24	0.017913409
164	0x3e502665	0.20327146
165	0xbd042514	-0.032261923
166	0x3dc1e09c	0.09466669
167	0x3c0595c9	0.008153387
168	0xbd07dfe1	-0.033172492
169	0x3ca072bd	0.019585961
170	0xbdb63989	-0.08897693
171	0xbe261b4b	-0.16221349
172	0x3e603d57	0.218984
173	0x3e00960d	0.1255724
174	0x3e03269a	0.12807694
175	0xbdfc4851	-0.12318481
176	0x3d62b689	0.05534986
177	0x3e45004c	0.19238394
178	0xbc969500	-0.018381596
179	0x3bdfb3ff	0.006826877
180	0x3d3ca169	0.04605237
181	0x3c90063a	0.017581094
182	0xbdd80afe	-0.105489716
183	0x3e47442a	0.19459596
184	0xbe3ec508	-0.18629849
185	0xbdffe687	-0.124951415
186	0xbdce9bda	-0.1008832
187	0x3d8cbab1	0.06871546
188	0xbe0b112d	-0.13580771
189	0x3e018cab	0.12651317
190	0x3c89c647	0.016818179
191	0xbe1cd3a5	-0.15315111
192	0x3d26e825	0.040748734
193	0xbda47c49	-0.08031518
194	0x3d8bd8a0	0.06828427
195	0xbd35217b	-0.044221383
196	0xbdb4e3c4	-0.08832505
197	0xbd3c79af	-0.046014484
198	0xbd5f24be	-0.0544784
199	0x3d895060	0.067047834
200	0xbd6b74b3	-0.05748434
201	0x3e1c7f43	0.15282921
202	0x3cd7980d	0.02631762
203	0xbc8fc5a4	-0.017550297
204	0xbe23c4de	-0.15993068
205	0x3dcba87c	0.09944245
206	0x3dce4913	0.100725316
207	0xbc796f09	-0.015224227
208	0x3d68c524	0.056828633
209	0xbdc088ce	-0.094010934
210	0x3cf37c84	0.02972246
211	0x3e1cfa5f	0.15329884
212	0x3e1eaaf5	0.15494902
213	0xbde48113	-0.111574315
214	0x3e005ec4	0.1253615
215	0x3e1195e4	0.14217335
216	0xbd1dbe81	-0.038511757
217	0x3da1a289	0.07892329
218	0xbe060f30	-0.13091731
219	0xbd8c696a	-0.06856044
220	0xbbc82f49	-0.0061091525
221	0x3c9abe48	0.018889561
222	0x3e5a4005	0.21313484
223	0x3e2fc160	0.1716361
224	0xbe2a55a7	-0.16634236
225	0xbdd6354c	-0.10459384
226	0x3df61e51	0.12017501
227	0xbc9b3b95	-0.01894931
228	0xbc665a4b	-0.014059613
229	0x3e3466aa	0.17617288
230	0xbda284d4	-0.07935491
231	0xbdf2b6e9	-0.118512936
232	0x3e19fe2b	0.15038364
233	0x3dfb5bfe	0.122734055
234	0x3e02969c	0.12752765
235	0xbd439cec	-0.047757074
236	0xbe440f43	-0.19146447
237	0xbda1e122	-0.07904269
238	0xbe279117	-0.16363941
239	0xbdeb0b57	-0.11476772
240	0x3e34cd8f	0.1765654
241	0xbd9fc33e	-0.07800911
242	0xbe3c494e	-0.18387339
243	0x3e10b8cf	0.14132999
244	0x3e152c7e	0.14567754
245	0x3e3cd7e1	0.18441726
246	0xbe0691f2	-0.13141611
247	0xbdfed4fb	-0.124429666
248	0xbe2d1eba	-0.16906253
249	0xbde2dfc0	-0.11077833
250	0xbdbf448f	-0.093392484
251	0x3d747110	0.059678137
252	0x3b9a7d09	0.0047146124
253	0xbe12ea56	-0.14347205
254	0x3e2e7e66	0.17040405
255	0x3cda0b70	0.026616782
